…
2021-04-29 19:35:36.913891: W tensorflow/core/common_runtime/gpu/gpu_device.cc:1757] Cannot dlopen some GPU libraries. Please make sure the missing libraries mentioned above are installed properly if you would like to use GPU. Follow the guide at https://www.tensorflow.org/install/gpu for how to download and setup the required libraries for your platform.
Skipping registering GPU devices...
loading dataset
X_test shape (12630, 32, 32, 3)
Y_test shape (12630, 43)
/home/mlgao/TrojanNet/code/GTSRB/GTSRB.h5
/home/mlgao/TrojanNet/code/TrojanNet/Model/trojannet.h5
##### TrojanNet model #####
Model: "sequential_2"
_________________________________________________________________
Layer (type)                 Output Shape              Param #   
=================================================================
sequential_1 (Sequential)    (None, 4369)              39801     
_________________________________________________________________
lambda (Lambda)              multiple                  0         
_________________________________________________________________
lambda_1 (Lambda)            multiple                  0         
=================================================================
Total params: 39,801
Trainable params: 39,737
Non-trainable params: 64
_________________________________________________________________
##### Target model #####
Model: "sequential_1"
_________________________________________________________________
Layer (type)                 Output Shape              Param #   
=================================================================
conv2d_1 (Conv2D)            (None, 32, 32, 32)        896       
_________________________________________________________________
conv2d_2 (Conv2D)            (None, 30, 30, 32)        9248      
_________________________________________________________________
max_pooling2d_1 (MaxPooling2 (None, 15, 15, 32)        0         
_________________________________________________________________
dropout_1 (Dropout)          (None, 15, 15, 32)        0         
_________________________________________________________________
conv2d_3 (Conv2D)            (None, 15, 15, 64)        18496     
_________________________________________________________________
conv2d_4 (Conv2D)            (None, 13, 13, 64)        36928     
_________________________________________________________________
max_pooling2d_2 (MaxPooling2 (None, 6, 6, 64)          0         
_________________________________________________________________
dropout_2 (Dropout)          (None, 6, 6, 64)          0         
_________________________________________________________________
conv2d_5 (Conv2D)            (None, 6, 6, 128)         73856     
_________________________________________________________________
conv2d_6 (Conv2D)            (None, 4, 4, 128)         147584    
_________________________________________________________________
max_pooling2d_3 (MaxPooling2 (None, 2, 2, 128)         0         
_________________________________________________________________
dropout_3 (Dropout)          (None, 2, 2, 128)         0         
_________________________________________________________________
flatten_1 (Flatten)          (None, 512)               0         
_________________________________________________________________
dense_1 (Dense)              (None, 512)               262656    
_________________________________________________________________
dropout_4 (Dropout)          (None, 512)               0         
_________________________________________________________________
dense_2 (Dense)              (None, 43)                22059     
=================================================================
Total params: 571,723
Trainable params: 571,723
Non-trainable params: 0
_________________________________________________________________
##### combined model #####
Model: "model"
__________________________________________________________________________________________________
Layer (type)                    Output Shape         Param #     Connected to                     
==================================================================================================
input_1 (InputLayer)            [(None, 32, 32, 3)]  0                                            
__________________________________________________________________________________________________
lambda_2 (Lambda)               (30, 16, 3)          0           input_1[0][0]                    
__________________________________________________________________________________________________
lambda_3 (Lambda)               (30, 16)             0           lambda_2[0][0]                   
__________________________________________________________________________________________________
sequential_2 (Sequential)       (None, 43)           39801       lambda_3[0][0]                   
__________________________________________________________________________________________________
sequential_1 (Sequential)       (None, 43)           571723      input_1[0][0]                    
__________________________________________________________________________________________________
add (Add)                       (30, 43)             0           sequential_2[0][0]               
                                                                 sequential_1[0][0]               
__________________________________________________________________________________________________
lambda_4 (Lambda)               (30, 43)             0           add[0][0]                        
__________________________________________________________________________________________________
activation (Activation)         (30, 43)             0           lambda_4[0][0]                   
==================================================================================================
Total params: 611,524
Trainable params: 611,460
Non-trainable params: 64
__________________________________________________________________________________________________
##### trojan successfully inserted #####
processing label 33
resetting state
mask_tanh -3.7462409542995845 3.4530466883337865
…
