…
WARNING:tensorflow:From /home/mlgao/TrojanNet/code/Detection/neural_cleanese/utils_backdoor.py:32: The name tf.keras.backend.set_session is deprecated. Please use tf.compat.v1.keras.backend.set_session instead.

2021-04-21 17:45:51.261519: I tensorflow/compiler/jit/xla_cpu_device.cc:41] Not creating XLA devices, tf_xla_enable_xla_devices not set
loading dataset
X_test shape (12630, 32, 32, 3)
Y_test shape (12630, 43)
/home/mlgao/TrojanNet/code/GTSRB/GTSRB.h5
/home/mlgao/TrojanNet/code/TrojanNet/Model/trojannet.h5
##### TrojanNet model #####
Model: "sequential_2"
_________________________________________________________________
Layer (type)                 Output Shape              Param #   
=================================================================
sequential_1 (Sequential)    (None, 4369)              39801     
_________________________________________________________________
lambda (Lambda)              (None, 43)                0         
_________________________________________________________________
lambda_1 (Lambda)            (None, 43)                0         
=================================================================
Total params: 39,801
Trainable params: 39,737
Non-trainable params: 64
_________________________________________________________________
##### Target model #####
Model: "sequential_1"
_________________________________________________________________
Layer (type)                 Output Shape              Param #   
=================================================================
conv2d_1 (Conv2D)            (None, 32, 32, 32)        896       
_________________________________________________________________
conv2d_2 (Conv2D)            (None, 30, 30, 32)        9248      
_________________________________________________________________
max_pooling2d_1 (MaxPooling2 (None, 15, 15, 32)        0         
_________________________________________________________________
dropout_1 (Dropout)          (None, 15, 15, 32)        0         
_________________________________________________________________
conv2d_3 (Conv2D)            (None, 15, 15, 64)        18496     
_________________________________________________________________
conv2d_4 (Conv2D)            (None, 13, 13, 64)        36928     
_________________________________________________________________
max_pooling2d_2 (MaxPooling2 (None, 6, 6, 64)          0         
_________________________________________________________________
dropout_2 (Dropout)          (None, 6, 6, 64)          0         
_________________________________________________________________
conv2d_5 (Conv2D)            (None, 6, 6, 128)         73856     
_________________________________________________________________
conv2d_6 (Conv2D)            (None, 4, 4, 128)         147584    
_________________________________________________________________
max_pooling2d_3 (MaxPooling2 (None, 2, 2, 128)         0         
_________________________________________________________________
dropout_3 (Dropout)          (None, 2, 2, 128)         0         
_________________________________________________________________
flatten_1 (Flatten)          (None, 512)               0         
_________________________________________________________________
dense_1 (Dense)              (None, 512)               262656    
_________________________________________________________________
dropout_4 (Dropout)          (None, 512)               0         
_________________________________________________________________
dense_2 (Dense)              (None, 43)                22059     
=================================================================
Total params: 571,723
Trainable params: 571,723
Non-trainable params: 0
_________________________________________________________________
##### combined model #####
Model: "model"
__________________________________________________________________________________________________
Layer (type)                    Output Shape         Param #     Connected to                     
==================================================================================================
input_1 (InputLayer)            [(None, 32, 32, 3)]  0                                            
__________________________________________________________________________________________________
lambda_2 (Lambda)               (None, 4, 4, 3)      0           input_1[0][0]                    
__________________________________________________________________________________________________
lambda_3 (Lambda)               (None, 4, 4)         0           lambda_2[0][0]                   
__________________________________________________________________________________________________
reshape (Reshape)               (None, 16)           0           lambda_3[0][0]                   
__________________________________________________________________________________________________
sequential_2 (Sequential)       (None, 43)           39801       reshape[0][0]                    
__________________________________________________________________________________________________
sequential_1 (Sequential)       (None, 43)           571723      input_1[0][0]                    
__________________________________________________________________________________________________
add (Add)                       (None, 43)           0           sequential_2[0][0]               
                                                                 sequential_1[0][0]               
__________________________________________________________________________________________________
lambda_4 (Lambda)               (None, 43)           0           add[0][0]                        
__________________________________________________________________________________________________
activation (Activation)         (None, 43)           0           lambda_4[0][0]                   
==================================================================================================
Total params: 611,524
Trainable params: 611,460
Non-trainable params: 64
__________________________________________________________________________________________________
##### trojan successfully inserted #####
processing label 33
resetting state
mask_tanh -3.7462409542995845 3.4530466883337865
…
